cifar_net.pth (torch, 251167 bytes, 10 tensors)

conv1.weight f4 [6, 3, 5, 5]
000000 69 f0 9c 3e 6f 3c 14 3e ed 34 ff bd 40 a9 6e bd
       0.30652168 0.14476179 -0.12461267 -0.058266878
000010 bf ff 80 3e d4 6c f5 3e c7 63 a7 3e fb 86 8a be
       0.2519512 0.47934592 0.32693312 -0.27056107
000020 98 9f a3 be e7 b0 91 3e c9 e3 e4 3e 4c a7 95 3e
       -0.31957698 0.28455278 0.44705036 0.292292
000030 1b 92 33 be 99 a6 26 be c5 a7 3e 3b 7b 92 b7 3d
       -0.17536204 -0.1627449 0.0029091698 0.08963486
000040 d1 4b 53 3e 19 c0 37 bb ba d6 48 bd 37 1a 2e 3d
       0.2063439 -0.0028038083 -0.049032904 0.04250547
000050 01 66 34 bb bd 6d 86 bd 36 e1 4b 3e b9 25 f2 3d
       -0.002752662 -0.065639 0.1991013 0.11823601
000060 54 e2 d8 3d fd b1 cd 3d c1 33 51 be 12 fb 16 bf
       0.10590044 0.10043714 -0.20429899 -0.5897685
000070 d8 85 e7 be 45 f7 23 3d 0e 9e 8a 3e 73 ba 93 3d
       -0.45219302 0.040030736 0.2707371 0.07213297
000080 d0 49 0b bf 5c c7 ce be 2a 71 6b 3d 58 13 bc 3e
       -0.54409504 -0.40386474 0.05748097 0.36733508
000090 42 98 61 3d dc 71 ec be f6 49 a9 be b3 56 75 bd
       0.055076845 -0.46180618 -0.3306424 -0.059897136
0000a0 2c d5 bc 3d de 9f 71 3d 88 3c 43 be e0 36 51 be
       0.09220347 0.05899035 -0.1906606 -0.2043109
0000b0 fd a2 e5 bd f3 a6 03 bd 26 6c ec bd 56 37 7e 3b
       -0.11212728 -0.032141637 -0.11544065 0.0038790307
0000c0 e4 07 5a bd 32 58 9d 3d 92 6e 2a 3e 79 de a8 3c
       -0.05323018 0.076828375 0.16643742 0.020613896
0000d0 09 14 c7 be 25 d1 a6 bc 1b 21 7c 3e da b1 c7 3e
       -0.38882473 -0.0203634 0.24622004 0.39002877
0000e0 22 79 6b 3e f6 98 a0 be ae ca 75 be d2 52 e7 3d
       0.22995427 -0.313667 -0.24003097 0.112950936
0000f0 e0 0b ce 3e 91 49 df 3d 52 1f 21 be bb a2 56 be
       0.40243435 0.109027036 -0.15734604 -0.20960514
000100 ff f2 47 3d b7 f2 c1 3d 16 17 17 3e 5a c7 27 bc
       0.048815724 0.09470122 0.147549 -0.0102404
000110 7c ed f5 3c c4 64 57 bd ab 88 17 be 4c fc 87 bc
       0.030020468 -0.052586332 -0.14798228 -0.016599797
000120 e5 31 03 3e 91 75 26 bd 21 53 84 bd b9 e4 e3 bd
       0.12812002 -0.040639464 -0.06461168 -0.1112761
000130 91 5c 31 be db 2c 74 be 14 22 96 be 2c f9 35 be
       -0.17320468 -0.23845236 -0.29322875 -0.17770833
000140 cf 68 61 bd 10 5d 9a be 73 ec 57 be 44 6e 7e be
       -0.055031594 -0.30149126 -0.21086292 -0.2484675
000150 91 ac e5 bd 82 6e e0 bd 1b ac 5a 3d 68 42 1e 3d
       -0.11214555 -0.10958578 0.05338679 0.03863755
000160 36 8d 40 3c a2 13 65 3d 90 80 5a 3e 85 6c 3a 3e
       0.011752417 0.055926926 0.21338105 0.1820546
000170 df da 78 3e 67 6d 71 3e b8 ca 63 3e b8 87 c2 3d
       0.24302243 0.2357689 0.222453 0.094985425
000180 f3 90 ef 3d 39 ff 07 3e 53 da 35 3e dc fd 34 3e
       0.11697569 0.13280953 0.17759065 0.17674965
000190 41 bd fc bd a3 40 f5 bd 7e cd 98 be 63 6a 0c be
       -0.12340785 -0.11975219 -0.29844278 -0.13712458
0001a0 96 0d d2 bc 97 57 b3 bc 79 6a 08 be 10 3c 33 be
       -0.025641244 -0.021892352 -0.13321866 -0.17503381
0001b0 84 af 2a be 85 c0 08 be 8f 34 eb 3b 0d ae 8c 3d
       -0.16668516 -0.1335469 0.0071778963 0.06869135
0001c0 88 7b 0a 3e ba 8a 67 3c ee 28 4f bc 12 87 8b 3d
       0.13523686 0.014132196 -0.012644036 0.06812872
0001d0 84 99 d1 3d b9 e4 34 3d 04 fc f6 3d 1a 13 d1 3d
       0.10234359 0.04416344 0.12059787 0.102087215
0001e0 f7 96 78 3d a5 ca 9e 3d a8 50 36 3e 0c be f1 3d
       0.060690846 0.07753495 0.17804205 0.11803827
0001f0 2c 10 a1 3d df de 2e 3d b5 fd 85 3b f8 7f 20 be
       0.07864413 0.042693015 0.004089082 -0.15673816
000200 e8 50 50 bb 7d c5 8e 3c 59 36 26 3d 23 e2 e1 bd
       -0.0031786505 0.017428154 0.040579174 -0.1102946
000210 cf 84 37 be e0 35 86 bd ea b7 f1 3a ca 3e 13 3e
       -0.17921756 -0.065532446 0.0018441651 0.14379421
000220 b3 26 8d 3d 33 22 1f 3e 09 5e 4b 3e ba 31 05 3d
       0.06892147 0.1554039 0.1986009 0.032518126
000230 96 b0 d3 3c 54 6d 05 3e e6 c8 28 3e 41 8f f1 3c
       0.025841039 0.13029987 0.16482887 0.029487254
000240 0c b6 9f 3c 9f 57 17 3e 00 bf a9 3d 90 48 14 3d
       0.019495986 0.14779519 0.082883835 0.036202013
000250 e7 b8 79 3c 58 b1 d0 3d b7 ba 1c 3e b9 07 08 3e
       0.015241838 0.10190076 0.15305601 0.13284196
000260 24 ea 86 3e ad 29 87 3e 86 2e 0b 3e d0 d5 80 3e
       0.2635051 0.26398984 0.13591966 0.25163126
000270 1a 1b 8d 3e 2a ab 9a 3e 15 80 e1 3e 03 3a 8f 3e
       0.2755974 0.30208713 0.4404303 0.27973947
000280 d3 88 ca 3d 47 ca 98 3e dc db e3 3e e2 8f af 3e
       0.098893784 0.29841825 0.44503677 0.3428946
000290 00 28 8b 3e 50 0e 04 3e 7e 47 09 3e 2d 94 cd 3d
       0.27178955 0.12896085 0.13406178 0.10038028
0002a0 8c dc 82 3e 85 06 f6 3d 0e 06 34 be 37 1f ae bd
       0.2555889 0.12012962 -0.17580435 -0.085020475
0002b0 64 9a d1 39 27 e6 35 be 2c 1d e8 bd f6 ec 7f bd
       0.00039978616 -0.17763577 -0.11333689 -0.062481843
0002c0 92 12 ed bc 7c 48 9f bd 2a d1 d3 bd 6e 8c c0 bc
       -0.02893952 -0.07777497 -0.10342629 -0.023504462
0002d0 d1 59 15 be f5 fd 07 be d2 0a 18 be b5 1e 81 be
       -0.14585043 -0.1328047 -0.14847878 -0.2521874
0002e0 88 74 5d be b6 07 13 be 9d 12 44 be 4c 19 4f be
       -0.21626484 -0.1435841 -0.19147725 -0.20224494
0002f0 c7 73 43 be 32 23 32 be f4 46 f8 ba 46 ab 2e bd
       -0.19087134 -0.17396238 -0.0018942044 -0.042643808
000300 0b 38 f9 bb 0b 29 ef bd 6e 13 bf bd d1 c6 b7 bd
       -0.007605558 -0.1167775 -0.09329878 -0.08973468
000310 0c 2c bf bd 38 ec d3 bd 22 6b a1 bb a8 ea 29 bd
       -0.09334573 -0.103477895 -0.0049261013 -0.04148355
000320 b8 25 7f bd 2d 49 2d bd ab 99 16 be ab 3d d3 bd
       -0.06229183 -0.042306114 -0.14707057 -0.103144966
000330 f6 31 96 bc 5f 19 de bc 7c f8 fb bd 59 d5 36 be
       -0.01833437 -0.027111707 -0.12303254 -0.17854823
000340 8e 8a 68 be 55 b5 1a bd 60 4b 03 bc 18 9d 4e be
       -0.22709104 -0.037770588 -0.008013576 -0.20177114
000350 00 25 a1 be e0 c0 44 be f0 5d e1 bd 6d 18 02 be
       -0.3147354 -0.19214201 -0.11004245 -0.1270463
000360 45 80 ce bd e1 0f 1e be a4 bb 3b be 32 1b 9e bd
       -0.10083059 -0.15435745 -0.18333298 -0.07720031
000370 92 2f 60 3e be fb e9 3d 0d 75 cd 3d 01 7c 2d 3e
       0.21893147 0.11424969 0.10032091 0.16941835
000380 78 fe 05 3e e3 28 1d 3e c4 9a b9 3d f7 3f d3 bc
       0.13085353 0.15347628 0.09062722 -0.025787337
000390 e2 7b 73 bd 6d d9 1a bd f7 8d 4d 3e 8e b4 c3 bd
       -0.059444316 -0.03780501 0.20073687 -0.095559224
0003a0 d7 e9 37 be b1 80 01 3e 97 07 b5 3d 94 a7 05 be
       -0.17960297 0.12646748 0.08839338 -0.13052207
0003b0 1a da 5a be 58 3c bb 3e 69 9d 3c 3e 79 c0 8a bd
       -0.21372262 0.36569476 0.18419422 -0.067749925
0003c0 89 ae bd be de 31 c7 3d 72 cf 10 3f 6c 62 45 3e
       -0.37047222 0.09726308 0.56566536 0.19275826
0003d0 1a ae 14 be 4e 2c 3a 3d e9 7c 9e 3d 29 bd d0 3e
       -0.1451954 0.04545241 0.077386685 0.40769318
0003e0 b9 5e 7d 3e 62 ff 8f bd b2 7f 36 3e 59 81 01 3d
       0.24743165 -0.07031132 0.1782215 0.031617496
0003f0 2b 8c 57 be 91 aa 6d bd 3f 89 bb 3d 49 ed f5 3d
       -0.21049564 -0.058023993 0.09157037 0.12008149

conv1.bias f4 [6]
000000 f9 a2 6f be 69 c3 4f be 33 4e 64 bf 01 6e 22 bd
       -0.23402013 -0.20289387 -0.8918182 -0.03965569
000010 d4 06 0d bf 8f bf 96 3d
       -0.55088544 0.07360756

conv2.weight f4 [16, 6, 5, 5]
000000 06 46 60 be 5a 58 df bd 0c b2 fb 3c 4d f9 49 3d
       -0.21901712 -0.109055236 0.030724548 0.049310017
000010 59 13 b6 bc ea 42 d8 bd de 68 91 be ba 82 06 be
       -0.022226023 -0.10559638 -0.2840032 -0.13135806
000020 a8 d3 10 3d ec 60 ad 3c f5 09 64 3d 53 1d 19 be
       0.0353581 0.02116438 0.05567356 -0.14952593
000030 3d 95 85 be 7d 73 d3 bd 38 46 09 bd 87 f2 8b bb
       -0.26090422 -0.10324762 -0.03351423 -0.004270855
000040 23 fe 82 bd e9 36 25 be a7 dc 72 bd 7d 59 a5 bc
       -0.06396129 -0.16134228 -0.05929246 -0.020184273
000050 2d 43 84 bd 72 d7 37 bd 31 2e a8 3d c2 5a 8c bc
       -0.06458125 -0.0448832 0.08211935 -0.01713312
000060 16 f1 ff 3c 41 d4 9e bd 86 e7 a9 3d ab 62 5d 3e
       0.031242888 -0.07755328 0.08296113 0.2161967
000070 f0 c6 44 3e fc 49 1b 3d c9 54 f7 bd 15 24 b5 bd
       0.19216514 0.037912354 -0.12076718 -0.08844773
000080 e8 89 8e ba 71 2d 05 3d f2 4c 49 3c bd 1f c8 bd
       -0.001087484 0.03251404 0.012286412 -0.097716786
000090 8c 6f 08 be bf bd f0 bd 7b 43 60 bd 7f e6 34 bd
       -0.13323802 -0.11754941 -0.054751854 -0.04416513
0000a0 9a 7e 26 3d 51 d3 5e bd 47 d5 28 be b1 86 0c be
       0.04064808 -0.054400746 -0.16487609 -0.13723256
0000b0 a6 d7 d4 bd 3b 44 67 bc a6 d6 5c 3d 77 f9 0f be
       -0.10392694 -0.0141153885 0.053915642 -0.14060007
0000c0 9f 89 b6 bd aa 9e 28 bd 75 61 eb 3d 1d 89 b5 bb
       -0.08912968 -0.04116694 0.11493198 -0.005540027
0000d0 0c cf 3b 3d c4 fa b6 3d 3f cb bc 3d 77 cc 2c 3d
       0.045851752 0.089345485 0.092184536 0.04218718
0000e0 95 52 dd 3d b2 aa 8d 3c cb 4a fe 3c 19 15 a0 3d
       0.10806767 0.017293308 0.031041523 0.07816524
0000f0 db 2e 9d 3d 7b d4 20 bc be a6 6a 3c b9 43 b4 3c
       0.076749526 -0.009816284 0.014321981 0.022004949
000100 ee 11 22 bd 85 bd 22 bd 74 41 2b bd 02 3d ce ba
       -0.03956788 -0.03973152 -0.041810468 -0.0015734734
000110 e6 af ef 3d a9 69 cc 3d 14 07 e3 bd 1e bf 21 3d
       0.11703472 0.099810906 -0.110853344 0.039488904
000120 ad 6f 49 bd bc d4 a5 3d 28 05 3c bb a9 51 2e 3e
       -0.049178768 0.080972165 -0.0028689597 0.17023338
000130 46 1d c6 3d ac 12 1b bc ef c1 f2 bd 24 a5 34 be
       0.09673552 -0.009464901 -0.11853396 -0.17641121
000140 10 5b a8 3d 77 33 36 3e d7 b9 32 3d 24 35 31 be
       0.08220494 0.1779307 0.043634262 -0.17305428
000150 3d e4 31 be 47 18 24 3e c7 07 86 3e 23 79 cf 3d
       -0.17372222 0.16024886 0.2617781 0.10130527
000160 1d a7 9c bd c0 a8 07 be 11 c8 65 3d e5 e5 63 3e
       -0.07649062 -0.13247967 0.056099 0.22255667
000170 01 58 7e 3d 3a 75 85 3d 71 3b 1e be 70 41 10 3d
       0.062095646 0.065165 -0.15452363 0.035218656
000180 c3 b9 e6 3b b9 e0 6c bc 0c 16 cb bb 33 21 bd bd
       0.0070411875 -0.014457875 -0.0061976966 -0.09234848
000190 e4 3c 94 3e 3b e3 1e 3d 6a 23 c1 bd d3 09 7f be
       0.28952706 0.038790923 -0.09430583 -0.24906091
0001a0 a4 d2 df bd 89 0d 1d 3e e0 df d2 3d a1 27 eb bd
       -0.109288484 0.15337195 0.10296607 -0.11482168
0001b0 a1 6b 9f be 4d 3f a1 be af a8 74 bd 49 eb 70 3d
       -0.31136802 -0.31493607 -0.05973118 0.058818135
0001c0 00 a2 a8 bc 92 cd 24 be d7 af 69 be 09 cf f7 bd
       -0.02058506 -0.16094044 -0.22820984 -0.12100036
0001d0 91 bb 61 bd f0 ba b6 bd 1d d2 55 be f4 bc 89 be
       -0.055110518 -0.08922374 -0.20880933 -0.26901972
0001e0 e8 e1 53 be ad 45 ea bd 25 4c 39 be 7b 95 45 be
       -0.20691645 -0.11439071 -0.18095453 -0.19295304
0001f0 f3 3a 32 be 19 e8 33 3e 7b 60 b1 3d 5c c2 97 3d
       -0.174053 0.17569007 0.0866098 0.07410118
000200 ea 77 d9 3d f5 a7 70 bd 63 d4 a2 3d c7 a6 ea 3d
       0.10618575 -0.058753926 0.07950666 0.114575915
000210 f5 2a 15 3e 72 43 29 3d fa 70 40 bd fe fe 06 be
       0.14567168 0.041324086 -0.046982743 -0.1318321
000220 8e 2e 06 3e 46 9a 82 3e 04 17 7b 3e 64 72 7e 3d
       0.13103697 0.25508326 0.24520499 0.06212081
000230 1c a0 1d bd 39 98 95 bc 83 46 a3 3d 91 68 97 3e
       -0.03848277 -0.018261062 0.079724334 0.29571965
000240 45 e8 ee 3d 74 43 24 bd 52 02 73 bd 80 74 13 3d
       0.11665396 -0.04010339 -0.059328385 0.035999775
000250 0c e5 52 3e d9 45 4f 3e a9 26 c1 3c 16 83 3c be
       0.20595187 0.20241489 0.023578005 -0.1840938
000260 75 0d a9 3d 9c 7c e2 3d fb 04 2f 3e e7 33 9e 3e
       0.0825452 0.110589236 0.17091744 0.30898973
000270 39 46 05 be d4 f9 db bd d1 c5 14 3c 17 b6 69 3e
       -0.13015069 -0.1074101 0.009080366 0.22823368
000280 75 d8 89 3e bd 1d 87 3e a0 ff 9d bd 5d b7 e9 bd
       0.26922956 0.26389876 -0.07714772 -0.11411927
000290 7e ee c6 3d 69 04 4a 3c a0 16 86 3e 06 b5 95 3e
       0.097134575 0.012330153 0.26189137 0.29239672
0002a0 74 bb e5 bd 73 79 9e bd 64 2c b0 3c 3f 82 ce bd
       -0.112173945 -0.07738008 0.021505542 -0.10083436
0002b0 8d da ca 3d 7a 23 01 3e f8 d8 bc 3d 0e 9a be bc
       0.099049665 0.1261119 0.09221071 -0.023266818
0002c0 70 09 d2 bd b4 27 89 bd 67 05 02 3d a1 1c 03 be
       -0.10255706 -0.06697026 0.031743433 -0.1280389
0002d0 32 77 a5 3c 15 90 c3 bd 43 0c b6 bd f8 e6 7e bd
       0.020198438 -0.09548966 -0.088890575 -0.062231988
0002e0 d1 32 0c be f4 69 21 3e 0c 08 ec 3d a0 09 9c bd
       -0.1369126 0.15763074 0.11524972 -0.07619023
0002f0 06 ee 99 bd 1d 22 5d bc 34 6d a4 bd c6 02 22 3e
       -0.075161025 -0.013496903 -0.08028641 0.1582137
000300 b7 34 1e 3e 1d fb 5a bd ab 36 13 be d1 18 ec bd
       0.15449797 -0.053462137 -0.14376323 -0.11528171
000310 96 86 f5 bc d9 6c 57 3e 6a 4a 3c 3e 4c d9 c2 bd
       -0.029971402 0.21037616 0.18387762 -0.09514102
000320 40 b8 03 3c 0d c6 d6 3c 88 54 46 3c f9 8a 2f bd
       0.008039534 0.026217485 0.012105115 -0.042857144
000330 78 55 f9 bc 4d e1 c0 bd 80 42 f9 bd ef bd 20 bd
       -0.030436262 -0.09417973 -0.12170887 -0.039243635
000340 ce 74 ab 3c 65 fb 58 3c a0 46 ff bd c1 cc 23 bd
       0.02092972 0.013243531 -0.124646425 -0.03999019
000350 9c cf 50 3d b1 29 e6 3c 2a 76 68 bc 0d 6d ab 3c
       0.05097924 0.028096052 -0.014188329 0.020926023
000360 b7 7f 8b bd 90 39 52 bd 10 cf 5f 3d 6a 04 a1 3d
       -0.06811469 -0.051324427 0.05464083 0.0786217
000370 56 e8 d8 bc 73 b3 ae bd 21 ea 80 3c 7a 05 55 3d
       -0.026477974 -0.08530321 0.015736641 0.052007176
000380 b3 16 cd 3b c2 29 ee bc 3d 9d 05 3e 08 e8 d9 3c
       0.0062588095 -0.029072646 0.13048263 0.026599899
000390 8f 4d 86 bd 27 09 e3 bc e2 58 88 bd 45 6c 1e be
       -0.06557762 -0.027714325 -0.06657578 -0.15470989
0003a0 ee 4a e3 3d 0c 4b b6 3d 12 7a 39 3d b8 ca b0 bd
       0.11098276 0.08901033 0.04528243 -0.086324155
0003b0 1a 08 56 be cb e2 b0 bd 8d e0 01 3e 4b 2c d0 3d
       -0.20901528 -0.08637007 0.12683316 0.10164698
0003c0 3b 04 15 be 4d 54 45 be 5b 10 44 be bf c0 eb bd
       -0.14552395 -0.1927044 -0.19146864 -0.11511373
0003d0 7a 0f 18 3e 88 04 8f be fe e7 20 be e0 e7 34 be
       0.14849654 -0.27933145 -0.15713498 -0.17666578
0003e0 46 33 b7 bd 5a 61 64 bd 2a 49 a3 3d 52 c9 20 3e
       -0.089453265 -0.055756904 0.07972939 0.15701798
0003f0 dc 0d d3 bc ca 69 9f bd b1 c9 fc 3c c4 38 1b be
       -0.025763445 -0.077838495 0.030857893 -0.15158373

conv2.bias f4 [16]
000000 2a 8b 80 bd 6f 8d 70 be e7 67 f3 3d 24 6f 6e 3e
       -0.062765434 -0.23491453 0.11885052 0.23284584
000010 7f c4 74 be b7 b2 3a 3f a2 43 5f be ff 0d c8 bd
       -0.23903082 0.7292895 -0.21803144 -0.097682945
000020 ca 32 07 3c 22 16 3d 3e 02 f5 40 3e e9 ab 23 3f
       0.008251855 0.18465474 0.18843463 0.6393419
000030 41 4d e5 be 38 e2 dc 3d b2 8d 34 bc a4 20 e1 be
       -0.44785503 0.10785335 -0.011020111 -0.43970215

fc1.weight f4 [120, 400]
000000 85 8d 4b 3c b4 92 93 3c c2 c0 07 bc be 83 74 3d
       0.012423878 0.01801429 -0.008285703 0.05969595
000010 a1 c5 f5 bc 6f f7 d1 bc a2 36 1b 3d 8f fd 4e 3d
       -0.030001463 -0.02563068 0.0378939 0.05053478
000020 a1 b7 3e 3d fc 98 ba bc 50 e4 d9 bc 88 23 22 bc
       0.04656184 -0.022778027 -0.026598126 -0.009896167
000030 7a 98 fb bc 1c 15 11 3d 25 8b 27 3d e1 31 65 bd
       -0.030712355 0.035420522 0.040904183 -0.05595577
000040 00 e2 9c bd 03 64 24 bd b7 ab 34 bd 6c 0c 20 3c
       -0.076602936 -0.04013444 -0.044109073 0.009768587
000050 52 52 9b bd e5 78 ce bd c9 22 a8 bd 7d 72 4f bd
       -0.07584061 -0.100816526 -0.0820976 -0.050646294
000060 7c 7d 89 bc 8f 43 c1 bc 5b ad 8a 3d c9 4f 8f 3d
       -0.016783468 -0.023591785 0.06771346 0.0699764
000070 ca 2e 15 3c b0 3f 1a be aa 25 94 bd f1 a7 3f 3d
       0.009105394 -0.15063357 -0.07233746 0.04679102
000080 a8 b3 cc 3c d2 8f 30 3d 12 6c 5e bc fa 27 93 bd
       0.02498801 0.043105908 -0.013575571 -0.07185359
000090 7b ef 78 3d bf d0 14 bb f1 db 75 bc 24 a9 a2 bc
       0.06077526 -0.002270743 -0.015006051 -0.019856043
0000a0 bc 91 64 3d 7b c8 cb 3d 2e 70 b0 bd 44 2f 48 bd
       0.055803046 0.09950348 -0.086151466 -0.0488732
0000b0 f6 ff a2 bc 53 79 b0 ba 57 10 60 bd bb 51 ca bd
       -0.019897442 -0.0013463892 -0.054703083 -0.0987887
0000c0 c4 5d a1 bd 14 d7 f9 bc 34 de 70 bc c6 ac f5 bc
       -0.078792125 -0.030498065 -0.014701415 -0.029989611
0000d0 3b da b0 3d d5 bd ab 3c 6e d3 77 bd 94 fe 2a 3d
       0.08635374 0.020964542 -0.06050437 0.04174669
0000e0 4e 51 9f 3d 83 64 b0 3d 73 9f 37 3d 6d c8 0a 3c
       0.077791795 0.08612921 0.044829797 0.008470637
0000f0 c5 39 43 bc 77 8f 3b ba 1f 11 a8 3c 3f 3c 16 3c
       -0.011915629 -0.0007154862 0.020515976 0.009169637
000100 47 99 45 bd 63 a7 30 bd 29 cc 90 bc b3 ef a4 3b
       -0.04824188 -0.043128382 -0.017675476 0.005033457
000110 3f fa d7 3c 2f 71 fe 3c c7 64 dc 3c 28 02 7a bc
       0.026364444 0.03105983 0.026903523 -0.015259303
000120 3c 01 b1 bd fc 49 3b bd 49 34 d6 bc b2 05 30 3d
       -0.086428136 -0.045724854 -0.026147978 0.04297418
000130 e8 30 01 3d d1 e4 2c bc 1f 62 bc bb 4b 01 81 bc
       0.03154078 -0.010552601 -0.0057490016 -0.015747687
000140 e8 68 48 3b 4d 38 1b 3c ef cc 8c bc 78 44 ad 3c
       0.0030580107 0.009473872 -0.017187564 0.021150813
000150 11 a7 ae 3a 3b b7 b1 bd ca 6c 9f bc e9 f6 94 3d
       0.0013324936 -0.086775266 -0.019461054 0.07273657
000160 1a 79 3c 3d 44 f0 ec bd be 76 b1 3a 42 74 a0 3d
       0.04601393 -0.115692645 0.0013539416 0.078346744
000170 3c ad 0c 3e b7 93 6d 3c aa 0d 89 bd 26 e9 52 3c
       0.13737959 0.01450055 -0.06692059 0.01287297
000180 7b 4a 54 3d b0 15 a3 3d 58 97 96 3c 17 ce 10 bd
       0.051828843 0.07963121 0.018382713 -0.035352793
000190 04 91 51 bd e9 80 97 bc 83 a0 a0 3b ce 98 e1 3d
       -0.05116369 -0.018494086 0.004901947 0.11015473
0001a0 c4 53 c8 bc c9 3f 28 bd b3 f2 ad 3d 7b 48 18 3d
       -0.024454005 -0.041076455 0.08493557 0.037178498
0001b0 17 5c ad 3d 57 67 26 bd cb 8b 41 3d b6 ac 80 3d
       0.0846483 -0.040625896 0.047252458 0.06282942
0001c0 b8 c2 98 3d e7 dd 8f bc b5 41 08 3d b5 3c 8b bd
       0.07459015 -0.017561866 0.033265788 -0.06798688
0001d0 db b6 66 bc ec 51 59 bb 93 6b 05 bd 4b 7c d9 bc
       -0.014081682 -0.0033160402 -0.032573294 -0.026548525
0001e0 6c dc c5 bd 21 cc 61 bd 91 bb 31 3b 50 6e a4 bc
       -0.09661183 -0.055126313 0.0027119855 -0.020072132
0001f0 64 79 b5 3c ba 00 a9 bd 2b 83 99 bd 71 53 6c bc
       0.02215261 -0.08252092 -0.074957214 -0.014424191
000200 c8 88 6c 3d 90 3b 19 3b 11 b8 3c bd ee ce 34 bd
       0.057747632 0.002338145 -0.046073977 -0.044142656
000210 c6 2e be bd e9 c9 31 3c 88 dd 96 3c 30 89 5f bc
       -0.09286265 0.010851362 0.018416181 -0.013643548
000220 e2 ff 92 bd 6d 00 dc bc 43 c2 15 bc 74 3a 8e 3c
       -0.07177712 -0.026855672 -0.009140554 0.017361857
000230 d1 50 15 3d 0e cf 60 3c 91 f6 3f 3d 74 b2 36 3c
       0.036454026 0.013721241 0.046866003 0.011150945
000240 74 48 3e 3d ac d3 ed 3c f9 6a 84 3c 18 d7 c3 3d
       0.046455815 0.029031597 0.01616429 0.0956251
000250 69 68 ed 3c 6b 45 89 3c 10 64 69 3c 3b ef 34 3d
       0.02898045 0.016756734 0.014245048 0.04417346
000260 b8 99 e9 bc 35 9c 22 bd 56 66 a5 3d 2a a4 33 bd
       -0.028515682 -0.039699752 0.0807616 -0.04385773
000270 dd db 82 3c 11 69 ac bd 2d 36 6c bd 23 09 00 3d
       0.01597398 -0.08418477 -0.057668854 0.031258713
000280 ee a5 a8 bd 4b f3 be bd 40 8d bc bc de d4 18 bc
       -0.082347736 -0.09323748 -0.023016572 -0.009328095
000290 73 ec 1e bd fb 08 46 bd 64 5a 11 bb 42 57 8f 3d
       -0.038799714 -0.04834841 -0.002217912 0.06999065
0002a0 d8 e6 c1 3c e4 af fb bc d7 67 7c 3d a7 f1 cf 3c
       0.023669645 -0.03072352 0.061622467 0.025383784
0002b0 11 f5 a2 3d 0b 9e 53 3c 06 54 9b bc 85 0c 85 3d
       0.07956899 0.012916098 -0.018960964 0.064965285
0002c0 17 4f b3 3c f8 24 45 bc 63 3d 3a bc 72 44 f8 3d
       0.021888299 -0.01203274 -0.011367175 0.1212243
0002d0 c8 cf 64 bc 4c 66 9f bd 7d 1b 75 bd 55 77 be bc
       -0.013965555 -0.077831835 -0.059840668 -0.023250261
0002e0 b7 89 e5 bc 20 af c9 3c 7a ba 68 bd db 22 81 bb
       -0.02801977 0.024619639 -0.056818463 -0.0039409227
0002f0 1c d4 28 3c 64 3b 06 bc a6 32 93 3d b0 aa 9f 3b
       0.010304477 -0.008192871 0.07187395 0.0048726425
000300 66 94 88 3d c2 d8 2f 3c 4c 1e ea bc 92 0c 41 bd
       0.0666893 0.010732831 -0.0285789 -0.04713113
000310 c6 75 da bc 08 a9 96 37 7f cf 83 3c eb 33 6b 3d
       -0.026667487 1.7960105e-05 0.016090153 0.05742256
000320 6b 4b ac 3b 49 4a 39 bd c3 86 81 bd f4 d7 ab bd
       0.005258014 -0.04523686 -0.06324532 -0.08390799
000330 45 a3 92 bd 48 73 a4 bd c3 a6 8c bd b2 53 72 bb
       -0.071600474 -0.08029801 -0.06867745 -0.0036976156
000340 2a cf df bc 22 3c b7 bd e5 e0 ce bc cb 30 12 3c
       -0.027320463 -0.08947016 -0.025253722 0.008922766
000350 98 93 73 bc 1f 3b 64 bd 5e 04 8d bd 2b 19 ce bc
       -0.014866732 -0.055720445 -0.068855986 -0.025158485
000360 d9 dd 07 bc cb 1c 59 bc 8f f0 c3 3c 99 3e 89 bc
       -0.008292639 -0.013251494 0.023918418 -0.016753482
000370 ac e1 84 3c 2b ed f3 3c de 84 d1 3c 13 48 a6 ba
       0.01622089 0.029776176 0.025576051 -0.0012686275
000380 96 be 80 bd a7 ba 8e bd 61 c8 d8 bd 62 35 57 bd
       -0.062863514 -0.06969195 -0.10585094 -0.052541144
000390 88 86 13 bd 74 2c e0 bd 91 ad 6c 3d fe 65 21 3d
       -0.03601697 -0.10945979 0.057782713 0.039403908
0003a0 15 ec ef bb 92 04 d0 3d 29 9a 10 bd f9 44 ab 3d
       -0.0073218443 0.10157122 -0.03530327 0.08362765
0003b0 dd 8e a2 3d b5 c5 a0 bb be 54 dd 3c 64 bf c9 3c
       0.07937405 -0.004906381 0.027017947 0.024627395
0003c0 9f 3c 8d 3d 1d a7 06 3d 02 56 bd bc ab 74 88 bd
       0.06896328 0.032874215 -0.0231123 -0.06662878
0003d0 da 96 d1 3c 34 5f d9 bc a8 9d 16 ba e3 d6 ab bd
       0.025584627 -0.026534654 -0.00057455385 -0.08390596
0003e0 48 4f 68 bd 3f b9 50 bd 4e 95 06 bc c5 f8 24 bc
       -0.056716233 -0.050957914 -0.008214308 -0.010069077
0003f0 1d cb 0c 3b 42 56 c4 3c fd 7b ad bd 63 aa d5 3d
       0.002148337 0.023966912 -0.084709145 0.10432889

fc1.bias f4 [120]
000000 d1 29 58 3c a7 c4 8d bb 29 69 b6 3d 1c cb 1a 3a
       0.013193564 -0.0043264213 0.089067765 0.00059048994
000010 ea 7c 6d 3d 4b 7b 38 bd f6 f0 5a bd 96 fb c1 bd
       0.057980455 -0.045039456 -0.053452455 -0.09471814
000020 83 36 3f bc 52 8f d7 bb b1 42 fa bd 51 cf c6 3b
       -0.011670711 -0.0065783644 -0.122197516 0.0060671945
000030 78 a3 2f bd b7 b1 f5 3c fd 9c 21 3c 6f cf f1 3d
       -0.042880505 0.029991968 0.009864089 0.11807143
000040 4b dc c2 3d 0f e8 e0 3c f3 1f cd 3c 12 e5 00 3e
       0.09514674 0.027454404 0.025039649 0.12587383
000050 26 11 a1 3b 4f 59 10 be ee fb b2 bd 28 24 05 3d
       0.0049153743 -0.14096569 -0.08739458 0.032505184
000060 2c 07 97 3d a7 37 0b 3d 62 88 06 3e cf 96 ed 3d
       0.07374415 0.03398862 0.13137963 0.1160103
000070 fb 53 78 bd 79 79 9e 3c ab 60 30 3e 1a 74 bd 3c
       -0.060626965 0.019345032 0.17224376 0.02312665
000080 7b 32 65 bc 84 28 86 3d af c4 6a bd 9a aa 8d 3d
       -0.013989086 0.065506965 -0.05731648 0.06917305
000090 54 15 a9 3c 50 ae ab 3b b6 38 d9 3d 71 4f 94 3e
       0.020640053 0.0052392855 0.1060652 0.2896686
0000a0 13 21 b8 3c 49 e8 5c 3d 72 06 ce bc 64 53 a4 bc
       0.022476709 0.053932462 -0.025149558 -0.020059295
0000b0 17 7a 94 bd fb fa 8b bb 25 6a 8d 3d 28 aa 08 3e
       -0.07249849 -0.0042718626 0.06905011 0.1334616
0000c0 1c 20 76 3d 81 c0 d4 3c aa 55 1b be 85 4f cd 3d
       0.060089216 0.0259707 -0.15169397 0.10024933
0000d0 49 c1 4c 3d a5 2e 10 3e 9f 86 57 3e 88 55 7c 3c
       0.04998902 0.14080293 0.21047448 0.015401252
0000e0 38 0c 9f 3b 01 1b f1 3d f8 7d d9 3d ab 0e 94 bd
       0.0048537515 0.11772729 0.1061973 -0.0722936
0000f0 12 1f d5 ba 8c f9 18 3d 9b 14 eb 3d 2a 02 ca bc
       -0.001625987 0.03734736 0.114785396 -0.024659235
000100 84 10 b4 bc 1e c0 58 bd dd a4 0e 3e e2 20 e7 ba
       -0.021980532 -0.052917592 0.13930078 -0.0017633701
000110 75 f9 d6 3b ba 6e b1 bc d9 54 a2 3c 8c ff 0c be
       0.0065604993 -0.021659244 0.01981585 -0.13769358
000120 80 a5 06 3d 2d f6 a5 bd 9a f0 13 3e 18 6f 2e 3e
       0.032872677 -0.08103595 0.14447251 0.17034566
000130 02 36 f3 bd 50 0f f5 3b 30 f4 91 3d db 4d de 3c
       -0.118755355 0.007478632 0.07126653 0.027136734
000140 3e b8 b2 bd b9 9f b4 bd ac 96 24 be 4d 92 29 3d
       -0.08726548 -0.08819527 -0.16073102 0.04139929
000150 89 fd c8 bd e0 8a 88 3a a7 80 ed 3c b4 78 4a bd
       -0.09813983 0.0010417365 0.02899201 -0.049431518
000160 ea ca 39 ba 68 cb e7 3d 6c c5 97 bc 0d 28 33 3d
       -0.00070874265 0.113180935 -0.018526755 0.043739367
000170 85 57 46 bd 2c 04 ac 3d 37 e1 82 3c d4 dd 19 3e
       -0.04842331 0.08399233 0.015976531 0.15026027
000180 6a 90 75 3d 58 f4 b6 bc 3c 6e d8 bb ce 8a a1 3b
       0.059952177 -0.022333309 -0.006604938 0.004929877
000190 92 0b 7f 3d 56 fa f2 3c 85 b7 e0 3d e3 a5 2f 3d
       0.062266894 0.029660385 0.109725036 0.04288281
0001a0 b0 49 06 3e 10 d1 07 3e 55 42 18 3d 78 9d 73 3d
       0.13114047 0.13263345 0.037172634 0.059476346
0001b0 14 58 c9 3c c2 e8 16 be f6 10 13 bd 01 d1 63 3d
       0.024578132 -0.14737228 -0.035904847 0.055619244
0001c0 c7 b8 52 3e 47 10 86 bc e6 4b 27 3c 89 ba 84 3b
       0.205783 -0.016365184 0.010210967 0.004050557
0001d0 a7 8b 30 3c 32 fb ab 3c dc 8b 92 3c 79 ad 60 3d
       0.010775483 0.020993803 0.017888956 0.054852936

fc2.weight f4 [84, 120]
000000 7d 99 ab bc c9 e8 0e bd 17 b2 16 3d 44 7f c6 3c
       -0.020947212 -0.03488997 0.036790933 0.024230607
000010 ef eb bd bd 6a be 67 3c 3a 43 1a bd 99 bf 18 3d
       -0.092735164 0.014144519 -0.03766177 0.037292097
000020 8e bf 40 3d 00 4b 0e bc ec 5d cc 3d ff 46 54 3c
       0.04705768 -0.008684874 0.09978852 0.01295638
000030 9c 6a 96 bc 2d 73 52 3b 35 17 0d 3e f9 3b 71 3d
       -0.018361382 0.0032112107 0.13778384 0.058895085
000040 ad c0 fe bd 1e 40 ca 3d c0 e5 b1 bc 16 a7 ae bd
       -0.12439094 0.09875511 -0.021715999 -0.08527963
000050 ce 95 b5 ba 4d 85 e3 3c 4e f8 a0 3d 68 f1 30 bd
       -0.0013853849 0.027773524 0.0785986 -0.043198973
000060 c0 43 f6 3d 55 d6 97 3d ad fe 0e be e1 25 90 3d
       0.12024641 0.074139275 -0.13964339 0.07038475
000070 77 61 a5 bd d0 0a 9f bd 27 49 ce bc c2 4a 9c bd
       -0.080752306 -0.07765734 -0.025181366 -0.076314464
000080 95 75 21 be be 4d ed bd 6b ac 23 3d 34 e8 e6 3d
       -0.1576751 -0.11587094 0.039959352 0.11274758
000090 c6 e8 0c 3d 61 02 d2 bc 7d a4 69 bd af f7 1c 3d
       0.034401678 -0.0256359 -0.057041634 0.038322147
0000a0 a9 c4 00 3d 9a af 9d bb 4f 64 79 bd 5f 27 a4 bc
       0.03143755 -0.004812193 -0.060886677 -0.020038305
0000b0 08 e3 b0 3c 3e b8 07 3d 4f 6c 98 bd 7e 8a 42 3d
       0.021592632 0.03313469 -0.07442533 0.047495358
0000c0 a3 16 f1 3b 20 6f 45 3d e8 f1 a1 bd f3 f5 bc 3d
       0.007357435 0.04820168 -0.07907468 0.092265986
0000d0 24 b3 ec bc 0a f3 d4 3c 67 20 16 be f0 09 68 3c
       -0.028894015 0.025994796 -0.14660798 0.014162526
0000e0 be ab 83 3c 46 9d f3 3d aa 3f ce bd 3b 6a 88 bd
       0.016073104 0.11895232 -0.10070737 -0.06660887
0000f0 86 2e 5c 3d fb ae b2 3d 72 19 85 3d d6 35 07 bd
       0.053755306 0.08724781 0.06498994 -0.033010326
000100 1d 62 8a 3d 08 2d fd bc b7 22 13 bd 8e 06 4d bd
       0.06756995 -0.030905262 -0.03592178 -0.05005508
000110 9a db 80 3d f9 33 c2 3d 5b d7 c1 bd 16 8c 21 bc
       0.06291886 0.09482569 -0.09464904 -0.009860059
000120 7e c2 83 bd ff 26 9e bc de 90 17 3d e9 b1 6f 3d
       -0.06433581 -0.019305704 0.03700339 0.058519278
000130 9a d3 80 bd 9f 19 e7 bd b6 b0 c3 3d a7 a4 82 3d
       -0.0629036 -0.11284184 0.09555189 0.06379061
000140 ba a2 23 be 61 3c 65 bd 28 a6 7f bc 18 67 a9 bb
       -0.15980044 -0.055965785 -0.01560358 -0.0051697604
000150 d3 ce ec 3c 73 3e fd 3d 0c 7d 31 be 9f 3b c0 bd
       0.028907215 0.12365427 -0.17332858 -0.09386372
000160 44 57 87 3d 24 88 07 bd 33 b0 cc bd 45 86 1b 3e
       0.066084415 -0.03308882 -0.09994545 0.15187939
000170 b8 d2 16 3d 24 56 d5 bd 2d 3b de 3c d8 51 48 3d
       0.03682205 -0.10416821 0.027127827 0.048906177
000180 9b b9 26 bd 94 03 92 bc cb 80 c2 bc 6f d0 5a bd
       -0.04070435 -0.017823972 -0.023743054 -0.053421434
000190 b3 75 dc 3c 8d 78 34 be 82 1a ef bd 57 c1 87 3d
       0.026911592 -0.17624111 -0.11674978 0.066286735
0001a0 b7 4e c1 b9 b3 0a fa 3c f5 1c b0 bd a4 48 a7 bc
       -0.00036870476 0.03052268 -0.08599273 -0.02042038
0001b0 73 00 c1 bb 77 1f df bd 4b fb b0 3d 98 13 9d 3d
       -0.005889946 -0.10894673 0.0864168 0.07669753
0001c0 25 82 d5 bc d3 04 8a 3d 8f 3c f2 3d 33 86 27 3d
       -0.026063034 0.067392014 0.11827957 0.040899467
0001d0 a4 92 a6 bd 90 4c 8e 3d 61 d0 7c bd 19 79 82 3d
       -0.08133438 0.06948197 -0.061722163 0.06370754
0001e0 28 d4 bd bc 70 52 6b 3d 6a a5 1f bd 8a 75 9b 3d
       -0.023172453 0.057451665 -0.03897611 0.07590778
0001f0 ec 62 93 3d 86 78 c1 bc b6 32 96 3d 35 f3 2e bc
       0.07196602 -0.02361704 0.07333891 -0.010678102
000200 1b da b2 3d c0 b6 8d bc e3 fa 06 3c bf 06 47 3d
       0.087330066 -0.017299056 0.008238527 0.048590418
000210 8f 98 8d bd ba ef 98 bd 89 a5 6e 3d ab 3e 5c 3d
       -0.06913864 -0.07467599 0.058263335 0.053770702
000220 6d b8 1b bd 35 50 de 3b 9f 94 8a 3d a5 e8 08 bd
       -0.03801768 0.0067844638 0.067666285 -0.033424992
000230 77 e6 d7 3c aa 31 85 bd e0 8c 32 bd 98 ec 34 bd
       0.026355011 -0.06503613 -0.04359138 -0.044170946
000240 15 fe e5 bc 9e 99 a5 bd 7e a4 4a bc f9 9b d4 bc
       -0.028075257 -0.08085941 -0.01236832 -0.02595328
000250 01 d9 b6 3d 5e 2d 3f bd c3 34 1f bb dd b1 67 3d
       0.08928109 -0.046674125 -0.0024292923 0.056566108
000260 8c f9 98 3d 6e aa 97 3c 28 32 81 bb 86 07 2c 3d
       0.07469472 0.018513884 -0.0039427467 0.041999362
000270 fa 37 bb 3d 5f 75 a3 bb 5b ff 7b bc c6 3b 1c 3d
       0.09141536 -0.004988357 -0.015380706 0.038142942
000280 ca 87 a1 bd 63 e3 20 3d 15 f9 8f 3d 47 09 51 bd
       -0.07887228 0.039279353 0.070299305 -0.05103424
000290 61 f8 ff 3a 6f dd 25 3d ed 04 97 bd 24 9a b2 bd
       0.0019528979 0.04049438 -0.073739864 -0.08720806
0002a0 db ee 37 3d 01 87 2c 3d 32 95 84 3d 41 d4 5c bd
       0.044905525 0.042120937 0.06473769 -0.05391336
0002b0 77 1f f5 3c 83 3a da bc 37 d3 57 bd 8c c2 08 3b
       0.02992223 -0.026639229 -0.052691665 0.0020867912
0002c0 6d d5 08 bd d2 f8 04 bb c9 c9 8a 3d 83 94 9d bd
       -0.033406664 -0.002028991 0.06776769 -0.07694342
0002d0 42 ff c0 bd 69 43 30 3d 14 5f 80 3b 61 31 64 3c
       -0.094236866 0.043033037 0.003917584 0.0139277885
0002e0 5e f2 0e bd 90 dc a7 3d 6d e2 1b 3d 2a 50 16 bd
       -0.034899108 0.08196366 0.038057733 -0.036697544
0002f0 38 91 32 bd 0c 49 57 bd 15 27 37 3d 35 98 12 bd
       -0.043595523 -0.052559897 0.044715006 -0.035789687
000300 84 1d 21 bd 21 d6 8e bd 17 17 35 3b 06 5f b5 bd
       -0.03933479 -0.069744356 0.002763217 -0.08856015
000310 81 4c 77 bd 8b fb 04 3d 34 b6 bd 3c b6 66 01 bc
       -0.060375694 0.032466453 0.02315817 -0.007898023
000320 ae 87 95 bd 2a 97 02 3d 52 0e 6b bd 60 81 22 bd
       -0.073012695 0.031882443 -0.057386704 -0.039674163
000330 7e 22 8e bc af 70 98 3c af e7 3b bd f7 9b 97 3d
       -0.017350432 0.01860842 -0.045875248 0.07402795
000340 c5 01 39 3d 0d ef 91 bc 8f 43 c2 3b 40 b0 5d 3d
       0.045167703 -0.017814184 0.005928464 0.054123163
000350 53 f1 a0 bd cb 88 ac 3d 0b 31 28 3d 22 e0 a4 bd
       -0.07858529 0.08424529 0.041062396 -0.080505624
000360 ff a7 84 bd a2 7f a4 bc 09 5b 3d 3d 61 99 00 3d
       -0.06477355 -0.020080391 0.046229396 0.031396274
000370 76 b7 f3 3c 5c 42 c9 3a 6d 49 0f 3d 28 58 50 bd
       0.029750567 0.001535486 0.034982134 -0.050865322
000380 1d 4a 12 3d bc 68 34 3c 58 98 f0 bc ee cd 58 bd
       0.03571521 0.011011299 -0.029369518 -0.052930765
000390 e6 6d 95 3d 73 9a 08 bb df d7 5a bc f2 2b aa 3c
       0.07296352 -0.0020844012 -0.013357132 0.020772908
0003a0 12 ff 92 bc f7 c7 53 bc f5 c1 61 bd a1 1f a0 3d
       -0.017943893 -0.012926093 -0.055116612 0.07818533
0003b0 95 1d 95 3b 8b bf e0 bb 6e 3c a4 bd 2c 0a c2 bc
       0.0045506456 -0.006858771 -0.080193385 -0.023686491
0003c0 b1 9c c9 3d dd 6e c4 39 31 da 85 3d 2e fa 11 bd
       0.0984434 0.00037466633 0.06535757 -0.03563898
0003d0 18 27 63 3c 0a 56 60 3d 73 e7 10 bb 0e 2b 4f 3d
       0.013864301 0.054769553 -0.002211061 0.05057817
0003e0 18 b3 ac bb 13 82 85 bc 90 10 d7 bd 38 54 c3 3c
       -0.005270373 -0.016297376 -0.10501206 0.02384387
0003f0 1c 14 1c 3c 35 ac 01 3c 9c 6e a1 3d 6d 14 98 3c
       0.009526279 0.0079145925 0.07882425 0.018564427

fc2.bias f4 [84]
000000 e3 9b 90 3d 4a 03 5a bd 53 ca 31 3e 0a da d1 3c
       0.07060983 -0.053225793 0.17362337 0.025616664
000010 1a 84 d3 3c e8 a2 c2 3d 44 25 ca 3c 9d 24 6c 3d
       0.025819827 0.09503728 0.024675973 0.057652105
000020 cf 6c 22 3d 1f c1 7a bd 53 65 94 bc 13 f2 ba 3c
       0.03965455 -0.06121933 -0.018114721 0.022820508
000030 87 54 c3 3e cc b8 23 3d 38 4e 77 3d ec 1f d7 3d
       0.38150427 0.039971158 0.06037733 0.105041355
000040 d2 a3 77 3e 9b 74 ab 3d 72 50 1e be 54 93 92 3c
       0.24183586 0.0837185 -0.15460375 0.017892517
000050 43 d8 bb bc 39 56 71 3d 9b e9 05 be 00 34 4b 3c
       -0.02293027 0.05892012 -0.13077395 0.0124025345
000060 18 1c 81 3e e1 6b b7 3d b4 3a f7 bc cb 23 82 3d
       0.25216746 0.08956123 -0.030179359 0.06354483
000070 8f 67 cc 3c 0b d9 e3 bd e8 44 85 39 af c3 48 3c
       0.024951724 -0.11125382 0.00025419076 0.012253686
000080 86 3e 50 3e 56 d1 35 bd bd 52 8b 3d 2a f1 94 3e
       0.20336351 -0.04438909 0.068028904 0.29090244
000090 24 40 10 3d f5 90 83 bd 6c 06 6f bd bf 28 01 3e
       0.03521742 -0.06424133 -0.058355734 0.126132
0000a0 12 1d b8 3d 3c 15 27 3e 6a 77 eb 3d 2a a6 1e bd
       0.0898992 0.16316694 0.11497386 -0.038732685
0000b0 d1 11 38 3e b1 dc e6 3a a7 7e 5a bd f0 2b 9e bb
       0.17975546 0.0017613379 -0.05334344 -0.004827015
0000c0 7b 7c 1c 3e b7 dc 9a 3d 4e 7b 3f 3e c9 d6 c6 bc
       0.1528186 0.07561629 0.18699381 -0.02427234
0000d0 a0 08 43 3e c5 c2 ee 3d 88 3c e2 bc b5 3b e7 3c
       0.19046259 0.11658243 -0.027616754 0.028226713
0000e0 ab fa b3 3d b6 33 46 bc 47 05 ac bd 11 ed 6c bd
       0.087880455 -0.01209729 -0.08399444 -0.05784327
0000f0 d6 9f 43 3c eb 4e 0d 3e 9d 88 0a 3d ef 45 9d 3d
       0.011939963 0.13799636 0.03382169 0.076793544
000100 82 15 71 3e bc a8 38 3d e1 f2 d6 3d a8 c8 a8 3e
       0.23543361 0.045082793 0.10495544 0.3296559
000110 a1 b4 2a 3d ba 36 a2 3c c0 4b 0c be d0 e5 0c 3e
       0.041676167 0.019801486 -0.13700771 0.13759542
000120 75 de 83 3e 0b 64 40 3d 59 33 0b 3e 29 e4 cb 3d
       0.2575566 0.04697041 0.13593806 0.099556275
000130 82 e6 42 bc 16 03 39 3e 16 8e ec 3e 2f 2b 3b be
       -0.011895778 0.18067583 0.46202153 -0.18278192
000140 14 6f 8d 3d 1b d6 91 bd 82 8e 1c 3e 4a 3b 13 3e
       0.06905952 -0.071209155 0.15288737 0.14378086

fc3.weight f4 [10, 84]
000000 49 e5 55 3d 11 74 84 bc 98 85 ef 3d 34 cd 7d 3d
       0.052220616 -0.016168626 0.11695403 0.061963275
000010 ca 4a 20 3c 24 f8 02 be 6f 01 40 3e dd ba 16 be
       0.009783456 -0.1278997 0.18750547 -0.1471972
000020 92 3c 3c 3d c4 cd 97 bd 2f 1e 83 bd d7 6f b0 3d
       0.0459562 -0.074122936 -0.064022414 0.08615082
000030 d5 0f a0 3e a7 64 f9 3d da 2d f0 3d 1e 94 97 3e
       0.3126208 0.12177401 0.117274955 0.29605192
000040 db cf 0b be 2b 95 62 3e 65 4a fe bd ec b0 7f 3d
       -0.1365351 0.22127216 -0.124165334 0.062424585
000050 a3 1f 06 3d c9 34 22 3c 38 c9 5a bc b4 86 1f be
       0.032745015 0.00990028 -0.013353638 -0.15578729
000060 87 92 7d bc 9c a5 95 bd c5 d7 76 bd 86 34 1b bd
       -0.015476829 -0.07306978 -0.060264368 -0.037891887
000070 02 52 2a 3e c3 17 8f 3d f9 62 8e bb a4 bb 47 be
       0.16632846 0.06986954 -0.0043452946 -0.19505173
000080 12 87 7d 3d ea 45 b3 3c 74 05 44 be 7b 68 1b be
       0.06189639 0.021883924 -0.19142705 -0.15176575
000090 49 d8 e0 3d 64 d5 f5 bb 06 19 f9 3d 63 9e 1b bd
       0.10978753 -0.007502245 0.12162976 -0.037992846
0000a0 4f 11 97 bd f5 92 fb bd f5 93 db 3b 84 1b a0 3c
       -0.07376348 -0.12283889 0.0067009875 0.01954437
0000b0 88 8d 0f bd 1e a1 71 3e 28 ba 91 bb c4 a1 69 bd
       -0.035047084 0.23596618 -0.0044472404 -0.057039037
0000c0 a9 34 34 be bf 7b 28 3e ef c6 16 3e 1a 2b 05 3e
       -0.17598213 0.16453455 0.14724325 0.13004723
0000d0 72 84 44 3e 14 29 22 3e 08 3c a1 bc e3 d0 7a 3d
       0.19191149 0.15835983 -0.019681945 0.061234366
0000e0 8d ff 15 be ea 6a 01 be 36 6b 82 3e d1 57 22 bc
       -0.14648266 -0.1263844 0.2547242 -0.009908632
0000f0 39 22 7b bc 9d 22 19 be f8 c9 56 3e 1d e3 0c be
       -0.015327984 -0.1495461 0.20975482 -0.13758512
000100 69 05 a2 bd 82 0b 94 be 15 0a 35 3e c9 38 0a bb
       -0.07911188 -0.2891503 0.17679627 -0.0021090975
000110 ff 0b 7e 3e 3e e4 54 3c 01 2d 8b 3d 3f d2 b1 3c
       0.24809264 0.01299387 0.06795693 0.021706698
000120 5c b6 96 be 7d d1 ba bd 57 bf 8d bc 8a 28 35 be
       -0.29436004 -0.09121988 -0.017303152 -0.17691246
000130 14 4d c2 bd 23 f3 f4 3d 7e 10 60 be cf 57 b9 3d
       -0.09487358 0.11960437 -0.21881291 0.09049951
000140 87 ea ab 3a 33 5d d0 3d f8 80 02 3e 6f 0f 6f bd
       0.0013116159 0.10174026 0.1274451 -0.058364328
000150 5b 06 1c 3e 33 13 6a 3d 69 55 a6 bd dc 97 e5 bc
       0.152368 0.057147216 -0.081217594 -0.028026514
000160 af c6 91 3d 8e 1a b7 3d 8a b1 95 3e 80 d1 cc bd
       0.07117974 0.08940612 0.29237014 -0.100008965
000170 43 7e 50 3c 24 9e d5 bd 4b 3d ec bb f4 98 cb 3d
       0.012725416 -0.104305536 -0.007209455 0.09941283
000180 56 d9 c1 be 5d 5c 19 be 74 d9 51 3c 8e 60 bf 3e
       -0.37861127 -0.1497664 0.0128081925 0.37378353
000190 a8 2e 80 bd 17 c0 74 3e bf ac da 3d 20 90 64 3e
       -0.06258899 0.23901401 0.1067748 0.22320604
0001a0 73 f0 d7 bc c4 75 4e be 04 9e 4c 3d 6c c9 ac bd
       -0.026359772 -0.20162112 0.049955383 -0.08436856
0001b0 11 7d 96 be dd 33 9e 3e b8 8e 79 3e 03 2b a1 bd
       -0.29392293 0.30898944 0.24370849 -0.07869532
0001c0 d2 4c 97 bd 97 20 95 3d 91 6d e5 bd 9f 4d 8c 3c
       -0.07387699 0.07281607 -0.11202539 0.017126856
0001d0 25 24 53 3d ef 99 1c bc af 88 44 3e 41 f5 a6 be
       0.051548142 -0.009558185 0.19192766 -0.3260899
0001e0 84 75 71 3e 7f 35 84 bd 82 4e a1 3c 0e 7a 2e bc
       0.23579985 -0.06455516 0.019690756 -0.010649217
0001f0 c2 14 18 be 6a dc e8 bd b6 df 99 bb df c6 08 bd
       -0.14851668 -0.11370166 -0.004695858 -0.033392783
000200 9b 00 86 be d9 e3 4c be e0 ab d0 bd 29 08 9e bc
       -0.26172337 -0.20008792 -0.101890326 -0.019291
000210 be dd 19 3d a1 2a 74 3b 0f e7 c3 bd 2b fd ad 3b
       0.037564985 0.0037256854 -0.09565555 0.005309721
000220 8b c9 a2 3c 2c 8f c7 3d 5f 5a 32 bd 75 2d 40 3c
       0.019871494 0.09744105 -0.043543216 0.011729588
000230 15 06 43 be c8 91 29 3d c9 03 a0 bd c2 df 76 bd
       -0.19045289 0.041398793 -0.07813222 -0.060271986
000240 5c df 5d 3d 27 12 4a 3d a7 d9 f9 bd 4a 3b f3 bc
       0.05416809 0.049333718 -0.12199717 -0.029691357
000250 8f 54 10 be 15 00 3a 3e 2c d8 a7 bd b7 2b ca 3b
       -0.14094757 0.18164094 -0.081955284 0.006169762
000260 66 64 66 3e ea 94 52 3d a2 9f 60 bd ca f4 11 3c
       0.22499236 0.051411547 -0.054839738 0.00890846
000270 58 10 81 be 6a a8 8d 3d 1c 68 9f bc 7e e8 b0 bd
       -0.25207782 0.06916888 -0.019458823 -0.08638094
000280 16 fb 15 3d b4 fa dd bb ea ff 8d be af 6a 31 3e
       0.036616407 -0.006774271 -0.2773431 0.17325853
000290 5d 0e 19 be dd 26 e5 3d 84 47 48 be b4 55 1c be
       -0.14946885 0.11189053 -0.19558531 -0.15267068
0002a0 af a3 df bd dd fc 90 3b f7 46 2a 3e 49 33 e5 bd
       -0.10919892 0.004424675 0.16628633 -0.111914225
0002b0 f8 9b 30 bd 1e 57 e1 3d dd 14 41 bd 1e 4b 05 3e
       -0.043117493 0.110029444 -0.047139037 0.13016936
0002c0 e2 c7 0c bd f1 28 8c bd 43 34 93 3d b9 8d 0b be
       -0.03437031 -0.068437465 0.071877025 -0.13628282
0002d0 af c4 5d 3e 1f e7 e2 3d e4 8b cd bc 32 4c 57 3b
       0.2165706 0.11079239 -0.02509112 0.0032851812
0002e0 61 31 36 3e dc d8 34 be f3 c4 4e bd a8 2c 9c bd
       0.17792274 -0.1766085 -0.050480794 -0.07625705
0002f0 08 a1 a8 bd 3b 88 26 3e 1b 9b cd bd d0 8b 3d 3e
       -0.08233839 0.16262905 -0.1003935 0.18510365
000300 28 7a f2 bd 96 11 23 bd f8 bf dc 3d 47 58 cb 3c
       -0.11839706 -0.039811693 0.10778803 0.024822367
000310 73 d5 a5 bd f7 2b 74 bb 82 87 7f bd 56 71 3f be
       -0.08097353 -0.003725765 -0.06238509 -0.18695578
000320 ca 87 66 3e 93 2f cb bd c3 55 b0 3d 79 e6 a4 3d
       0.22512737 -0.099211834 0.08610108 0.08051772
000330 48 d0 df 3a 58 18 b2 bc 8a c8 be 3c 14 7f e5 bd
       0.0017075622 -0.021740124 0.023288984 -0.11205879
000340 b5 69 4b bd 16 8e 40 bd 98 32 7f bd 00 c0 b1 bd
       -0.049661357 -0.047010504 -0.06230411 -0.08679199
000350 52 e7 6b 3d db 99 72 bd e7 a0 ad 3d a6 3b 8a 3d
       0.05759365 -0.05922876 0.08477955 0.06749658
000360 ef 08 90 bc 73 b6 ed 3d 5f c7 d9 3c 3a 90 45 3e
       -0.017582385 0.11607065 0.026584325 0.192933
000370 0d 02 be bc b0 69 67 3d a0 19 db 3b 7b 5f 11 bd
       -0.023194337 0.056497276 0.0066864043 -0.035491448
000380 8f 05 1c 3e 02 6a bc bd 44 8f 34 bc fb 87 83 bc
       0.15236495 -0.09199907 -0.011020485 -0.016056051
000390 60 70 04 bd 2a f1 a6 bc dc 91 0e 3e af 47 aa bd
       -0.03233373 -0.020378668 0.13922828 -0.08314454
0003a0 17 cc 5c 3e ba 86 8c 3c ee ca 37 3e fe 0a 85 3d
       0.21562229 0.017154086 0.17948505 0.06496237
0003b0 5f f9 0a be 24 bd e7 3a 24 da 25 be 9f 2a c2 3d
       -0.1357169 0.001768027 -0.16196495 0.094807856
0003c0 6c df cc 3d 54 3d bd bd 52 f9 01 bc 74 22 cc 3c
       0.10003552 -0.09240213 -0.007932978 0.024918772
0003d0 e3 1c fd bc e4 18 e5 3d e3 e3 2e 3e b5 dc da bd
       -0.030897563 0.11186388 0.1707912 -0.10686628
0003e0 f7 f7 a3 3c 47 6a 23 be e6 fc 61 3e e9 f7 be 3d
       0.0200157 -0.1595851 0.2206913 0.09324629
0003f0 62 6d b8 3d dd 7a 32 3b 34 7c 1e bd f7 81 6a 3d
       0.09005238 0.0027233877 -0.038692668 0.05725285

fc3.bias f4 [10]
000000 70 89 25 be 15 f7 09 bf 48 05 04 3e 32 4a 98 3e
       -0.1616571 -0.5389264 0.1289264 0.29744107
000010 7c fc 9f 3e dc 84 28 be 5f 41 f1 3c f7 e8 f2 be
       0.31247318 -0.16456932 0.029450117 -0.47443363
000020 80 ec dd 3e b1 59 37 be
       0.43344498 -0.17905308
